…
        "  model.compile(loss='mse',optimizer=optimizer,metrics=['mae'])\n",
        "  return model\n",
        "\n",
        "model_conv1D = build_conv1D_model()\n",
        "model_conv1D.summary()"
      ],
      "execution_count": 71,
      "outputs": [
        {
          "output_type": "stream",
          "text": [
            "Model: \"model_conv1D\"\n",
            "_________________________________________________________________\n",
            "Layer (type)                 Output Shape              Param #   \n",
            "=================================================================\n",
            "Conv1D_1 (Conv1D)            (None, 8, 64)             256       \n",
            "_________________________________________________________________\n",
            "dropout_3 (Dropout)          (None, 8, 64)             0         \n",
            "_________________________________________________________________\n",
            "Conv1D_2 (Conv1D)            (None, 6, 32)             6176      \n",
            "_________________________________________________________________\n",
            "Conv1D_3 (Conv1D)            (None, 4, 16)             1552      \n",
            "_________________________________________________________________\n",
            "MaxPooling1D (MaxPooling1D)  (None, 2, 16)             0         \n",
            "_________________________________________________________________\n",
            "flatten_2 (Flatten)          (None, 32)                0         \n",
            "_________________________________________________________________\n",
            "Dense_1 (Dense)              (None, 32)                1056      \n",
            "_________________________________________________________________\n",
            "Dense_2 (Dense)              (None, 1)                 33        \n",
            "=================================================================\n",
            "Total params: 9,073\n",
            "Trainable params: 9,073\n",
            "Non-trainable params: 0\n",
            "_________________________________________________________________\n"
          ],
          "name": "stdout"
        }
      ]
    },
    {
      "cell_type": "code",
      "metadata": {
…
